exp/ETT_checkpoints/SCINet_ETTm1_ftM_sl8_ll1_pl1_lr0.005_bs32_hid4.0_s1_l3_dp0.5_invFalse_itr0/checkpoint.pth (torch, 327453 bytes, 114 tensors)

inv_timescales f8 [3]
00000000: 0000 0000 0000 f03f 0000 0040 e17a 843f
00000010: 0000 00c0 e236 1a3f
1.0 0.009999999776482582 9.99999901978299e-05

blocks1.SCINet_Tree.workingblock.interact.level.phi.1.weight f8 [24, 6, 5]
00000000: 26f1 d267 401b c0bf 8989 973e 6f6a 9ebf
00000010: 30f1 d287 8f13 cabf c3c4 4b9f 5c20 abbf
00000020: 32e2 a50f eaae b6bf 5413 a08d f9e2 c9bf
00000030: 104e e76d 04a1 c5bf d57a c5c9 9e51 d0bf
00000040: db53 7091 67d5 ab3f c849 83f1 9e2c d0bf
00000050: 7c4d 093c 5d46 d5bf b793 6df3 c01b d0bf
00000060: ac09 b96f 8d1c d6bf d06c 8af5 53e8 b5bf
00000070: 21dc b64f 5a1f d5bf 2348 0fe0 fa9d cbbf
00000080: 5238 4b7a 3c21 e0bf d34a 6c65 bc10 c6bf
00000090: 5376 08fe 137b aebf cbd7 a8d3 d9fb cabf
000000a0: d379 868a 5ac6 afbf cf25 ea56 9ae7 bebf
000000b0: 8d04 a29c 184c cdbf a896 221a 0f04 bbbf
000000c0: 8ee6 cf1b 7a69 d7bf f82c c186 fb1d c0bf
000000d0: aaa0 e0e9 5081 ccbf d627 1b2d 50b8 cfbf
000000e0: d040 2548 4492 c9bf 0dd9 dacb 70a3 cfbf
000000f0: 7e23 75f9 b1e1 c3bf 7e23 7519 c80d c5bf
00000100: e0b8 154d 0e50 b03f f971 2b9a 8ad0 a33f
00000110: a11c a9cb 4055 9abf 76d1 95c1 29ed 81bf
00000120: 5ea4 529c bf63 b63f 1639 2343 f971 9f3f
00000130: 88f6 f310 3cc7 b8bf 38cb c00b 8100 c5bf
00000140: 5563 5623 cae1 c2bf bedb 6f51 8ac6 b8bf
00000150: a7cc c9b9 d7f8 bcbf 8016 2148 7e94 9ebf
00000160: bc55 c84b b1c8 bf3f dbc9 df3e 5a47 afbf
00000170: 16d4 c96b ddfd b03f 1705 76da 5048 c7bf
00000180: 4270 a274 4877 ca3f 304e 1a94 b0e0 cd3f
00000190: 23c9 13db a976 b53f c375 add3 9262 bebf
000001a0: fd73 4a21 d4a5 c73f 7d22 6e21 073c ae3f
000001b0: a43d 8195 5a61 81bf f37d b145 d4fe c8bf
000001c0: 53ce 2e6a dd6e 7cbf 5269 ac2b 0523 b53f
000001d0: 33b8 13fb 22fc c23f d43d ae93 9aab bc3f
000001e0: 52e9 3e5d c9ed c1bf bbd2 7dba 820a bcbf
000001f0: ab5a 040b 0295 a73f ae16 c1e2 c5c0 c53f
00000200: d64a f7e9 5d42 93bf 1a00 29bd f843 aa3f
00000210: 15a8 754b 0790 a43f ca14 4147 90f8 c43f
00000220: 4b1f 27a7 07ac c63f 20b1 f29a a6e3 c03f
00000230: 476a ab1d 7a19 c2bf d72d 92b6 34f9 bf3f
00000240: 180c be9d 56e1 ad3f 561f c3ba a986 c33f
00000250: 1aa9 bccb 8370 28bf d059 48f3 aae9 bebf
00000260: 4280 b501 7705 ba3f a1bb da4d 834d b7bf
00000270: a3ef b096 f02e cb3f 66b6 5b86 e77e cd3f
00000280: 75a1 cf96 7c2f a03f bafc a96d b2f4 b0bf
00000290: de31 c75b 3fac bebf 8cb6 7b41 f3fd cc3f
000002a0: 68da 6549 63e5 b4bf 5103 ab66 4c0c c63f
000002b0: c2f2 eb52 944d c13f 15b1 d349 de47 c73f
000002c0: 8660 94b9 d40f b13f 1089 6760 630d b33f
000002d0: 37d1 9b85 9d51 cf3f 6c5d c8f4 402f b3bf
000002e0: 56d1 9b85 a94e c73f e8ba 90e9 cf5a a4bf
000002f0: f375 21d3 2710 9abf a35c ce7b 1a2b 70bf
00000300: 74cd 9968 fd6b b13f 86c1 8d82 67a0 adbf
00000310: b2ac 5026 e578 c63f f4fd 2dbb c332 cd3f
00000320: 93dd 3592 0c72 b33f ca68 0b9f b874 c7bf
00000330: f11b edf0 eb18 ab3f 60b9 65b6 6d99 bbbf
00000340: a019 58a5 bf16 cbbf 5758 58ae 3a81 cd3f
00000350: 758a 082a c240 a93f 27e2 fc89 2d5b b93f
00000360: a0d3 4f59 2bfc c13f 3998 fc6d cd2d b8bf
00000370: e8f5 545a 7d11 7ebf e1e3 1509 fbed c93f
00000380: 01ff 1ff6 e06a 6abf 8a4b 7d52 626d c8bf
00000390: b85e 769a e66c c8bf f5b0 666a 8fec c13f
000003a0: d4d8 6309 5890 c13f 3c40 bdcc dff4 abbf
000003b0: e568 0f78 839a d23f 9fb5 1fec c811 953f
000003c0: c143 3b8f 52b8 bbbf dfa1 9d77 531b cbbf
000003d0: 3fbc c450 4505 b73f 3fbc c4d0 ee1c b73f
000003e0: eae1 2586 dccd 833f 09b4 f058 aa42 a3bf
000003f0: 39e0 10c4 fb50 bebf d5c1 8b06 8a74 a93f
00000400: 77f7 45a1 7ac8 ae3f 80cc 13a1 3cb5 c9bf
00000410: 3a55 98ba e94c b0bf 8dde 08d1 04a6 bdbf
00000420: fd9b 4417 1b94 b63f 7811 105c f424 99bf
00000430: 0ca8 f188 e6cc b73f 42de 2371 7dea c8bf
00000440: 14f9 2714 10fe ab3f dee5 d5b0 046b c0bf
00000450: 5736 b332 2836 bf3f 3b7d b6f9 d55c a8bf
00000460: 5839 cd87 b8c4 c03f 6b10 b45f dc93 c4bf
00000470: cf34 e5bf 5b7b c9bf ad07 a6e4 e18c a13f
00000480: 2703 af35 a30d c33f c42d 8b61 16d1 a8bf
00000490: 10ab 27f0 e50f c23f 0e43 ba50 3873 b3bf
000004a0: 5d1d 55e2 e7f5 b7bf 5da9 0ddc 34cc a63f
000004b0: b15b 7ddc 5235 c33f cc90 0a8e dce8 aebf
000004c0: 386f f5f1 4a68 a23f e290 0a0e ae5d aabf
000004d0: 7248 0587 4ccf b1bf eab3 fd45 e0d0 c43f
000004e0: 394e 2e36 7017 a8bf c720 1515 5567 b73f
000004f0: c0fe 3871 410b d13f ad4c f764 69f9 c73f
00000500: 1bb2 7cd1 8696 b03f 4f18 3e18 72e1 c33f
00000510: 5176 15e9 b283 c23f d50f 96e3 a34f c33f
00000520: b4e9 fa7b 5e42 bfbf 6e72 04f9 c7b5 bfbf
00000530: 931e ec54 eaf5 c23f 7f44 8671 5689 c3bf
00000540: 56c1 c53f d55c b83f fe33 340a 3486 c03f
00000550: 090c da33 8e76 be3f 70ec c610 7186 c23f
00000560: acc4 eb9d 9ddf bd3f 6168 6b1f e4f2 86bf
00000570: c24e a392 3f53 b3bf 04b1 d28a c7b6 c23f
00000580: 2ed9 4451 7883 c03f cc34 5cd8 d641 8c3f
00000590: f3a4 efac ee14 c43f 03ec e186 9f03 a6bf
000005a0: 6a2c 479d 8516 babf f7b0 1c75 8cb3 93bf
000005b0: c161 39ea c472 86bf 014f e38a 8ba5 933f
000005c0: 6a2c 47fd 25a6 bfbf 9173 6bc6 3c0f b1bf
000005d0: f99a 15f1 656b 7b3f f847 1888 aebf c3bf
000005e0: ace5 2f89 65eb a03f 3cbc e699 6bea a7bf
000005f0: 83cf 7d56 5e17 a0bf c7af 260f bbd1 d5bf
00000600: 05ed 6446 8823 d4bf 02eb cfcf 5ccc a6bf
00000610: c6f6 9d30 3dbc b4bf adf0 b97a 39e4 cbbf
00000620: 5867 ae9b ba00 d0bf 42ae 8758 ed9c aabf
00000630: 0c17 2218 3a6d bdbf 7556 93d1 10de bdbf
00000640: 7002 7d53 fda7 c93f 6905 6a14 fe27 b03f
00000650: 4dba b697 6567 d0bf c352 63e6 ef0d cbbf
00000660: 598f ff2c bd17 cabf cc6f 58be 9678 c5bf
00000670: 7e14 124f 92f7 c9bf 0e4b a396 a69e bb3f
00000680: f314 b202 1701 c13f 6cef c2c9 f8a3 c4bf
00000690: 119c be99 c082 a83f e663 41e6 21de a5bf
000006a0: edb1 20f3 794b b1bf f858 9079 af50 c2bf
000006b0: f258 9039 8c81 c1bf 7c7d 369d f59a babf
000006c0: 5cdd f6c7 58c5 c5bf ff9f 1ce0 07ab af3f
000006d0: c029 43bf c0d7 b3bf e198 d1f5 d016 aa3f
000006e0: 3063 ed9a c23b 563f eeef d765 d421 ba3f
000006f0: e9d5 1dd3 24d4 953f 21e8 198b 1299 c13f
00000700: c24d c6d3 afcb c1bf e570 a66d 1b3f c7bf
00000710: 7f1f 4ad0 0185 c0bf ea2a f71d 46ce 913f
00000720: b4fc 7138 215f bcbf 1f11 81f9 c5cb acbf
00000730: d844 d14b fdb2 cebf f5f0 a060 c368 b93f
00000740: c66e ff37 1510 b9bf 1034 c649 a17d b9bf
00000750: a1f7 f531 1c23 98bf 5a20 6ad3 bac8 c4bf
00000760: e5cc 41a3 871d c1bf 0ed6 7545 34e7 bbbf
00000770: b2d0 1e8d 824d bfbf 153a 2725 3bc8 b4bf
00000780: 04a1 462a a4e9 7a3f 34d4 4885 13a8 a73f
00000790: cb2b b7fa 40fd a3bf 186a a4c2 9f26 b33f
000007a0: 0735 52a1 2e7b c23f 5104 2783 88ef c9bf
000007b0: 1aba 557b 8860 bb3f a640 658e b657 afbf
000007c0: 4731 b1e7 2b3e c1bf b69a fbad db05 c13f
000007d0: b095 ccc3 d18e bf3f 18ca 50a1 96a2 ba3f
000007e0: cc1f 96ee f5c1 b0bf b856 acc8 ed9b c1bf
000007f0: 0a40 18c0 5a67 c2bf d321 7cec e16b 963f
-0.12583165235072008 -0.029702890582379324 -0.20372194416075606 -0.05298127598315141 -0.08860648042708233 -0.2022392217187653 -0.16897635809310474 -0.2549817057060129
0.05436252260566451 -0.25272344193686225 -0.33241968977855385 -0.251693952295962 -0.3454927054446226 -0.0855762934174209 -0.3300386217555929 -0.21575866642393846
-0.5040571583319979 -0.17238573982520808 -0.059532761344809025 -0.21081087908686266 -0.06206019345266935 -0.12072147962512435 -0.22888476989831866 -0.10553068531097642
-0.3658128043749479 -0.12591499404729922 -0.22269641322896422 -0.24781229212231776 -0.19977620623331527 -0.24717531160212794 -0.15532517128510998 -0.1644830822281413
0.06372155553774261 0.038700419730705655 -0.025715839796501275 -0.008753133983852673 0.08745954100108252 0.030708212588074955 -0.09679007924929739 -0.16407788347131613
-0.1475155518098982 -0.09677948463637073 -0.11317203794333129 -0.029863331940097826 0.12415607547912705 -0.06109125154025082 0.06637367135574865 -0.1818944040970016
0.2067652291779059 0.23341948730068074 0.08384191130224798 -0.11869161289128898 0.1847481882622616 0.059051726179920806 -0.00848646897080025 -0.19527676966661964
-0.006941666509124272 0.08256561580893632 0.14831959972019745 0.11199346642955926 -0.1400691705037596 -0.10953537991538102 0.046058715672349614 0.16994546482071854
-0.018807856946135036 0.051299832430686546 0.040161350213409865 0.16383555869302874 0.17712493573912477 0.13194735112973266 -0.14140249680242986 0.12489633042621705
0.0583598201328856 0.1525470888066091 -0.0001864586719134219 -0.12075298728482342 0.10164588729594562 -0.09102650309317407 0.21236998899428014 0.23043531475507278
0.031612294587662605 -0.06623377969116265 -0.11981578818012603 0.22649994561600229 -0.08162518064441715 0.17225031865202792 0.13518003510389148 0.18188074688749425
0.0666478112292471 0.07442303756355195 0.2446782019029656 -0.07493978477611102 0.18208807968006607 -0.03975534177913237 -0.025452253590961104 -0.003947356654769116
0.06805404475908522 -0.05786441296266091 0.17556442614418227 0.2281117118800321 0.07595900125112669 -0.18324954763267548 0.0529245120620131 -0.10780988410053771
-0.21163173268741975 0.2305062629026817 0.04932219279387066 0.09904751414149669 0.1405080972760091 -0.09444889006826508 -0.007340898189168034 0.2025750917780718
-0.003224791887077916 -0.19083813693813695 -0.1908233885012487 0.1400317449127965 0.13721752604005266 -0.05460261701830446 0.2906807587111316 0.020575656329972266
-0.10828128811705452 -0.2117714246808324 0.08992417547118324 0.09028523060691017 0.009669993251677906 -0.0376179917878759 -0.1184232095409933 0.04971724824816063
0.060123283564265266 -0.20084340920547916 -0.06367359929602837 -0.11581449607262524 0.08819741552416356 -0.024555032843652097 0.09297028392180112 -0.19465606712741318
0.05467272039457974 -0.12826594004199782 0.1219201205996908 -0.047583281261945186 0.1310034430593514 -0.16076235459343322 -0.1990770995129538 0.0342779723751073
0.14885368462821555 -0.048470210463701174 0.14111017443004714 -0.07597686739815065 -0.09359597469039245 0.04452672182272253 0.15006480947587655 -0.06037034257795568
0.035951940570809915 -0.05149597093012105 -0.06956938072588217 0.16262439172297088 -0.04705382024181088 0.09142047657690276 0.26631198937318956 0.18729894094449176
0.06479685415678953 0.15531755622595475 0.14464413052603445 0.1508679257641449 -0.12210646178110701 -0.12386751012349759 0.14812974115942676 -0.1526287130659831
0.09516651923127503 0.1290955591033764 0.11899651304160853 0.14472783393088973 0.11669335465900826 -0.011205465515946313 -0.07548901872660976 0.1462029865118738
0.1290121456929198 0.013797453382290568 0.156888803903065 -0.04299639245524391 -0.1019061573962731 -0.01923961128993398 -0.01096109237475751 0.01918619189457527
-0.12362897332711645 -0.06663875431281797 0.006694219789415306 -0.15428716321235902 0.0330459337200851 -0.046710360085278485 -0.031428287561452904 -0.34092594604112175
-0.31466872095525417 -0.044527912490556446 -0.08099729954661958 -0.2179023598909046 -0.25004449084518887 -0.05197850900352964 -0.11494792069614962 -0.11666970364179881
0.2004391343744092 0.06311023710624898 -0.25631084266470766 -0.21136282681859173 -0.20384945580655758 -0.16774257940494264 -0.20286778317327853 0.10788956811601855
0.1328457606470362 -0.16125402309068748 0.0478725612331844 -0.04271036086783635 -0.06755792794928768 -0.14308732448325379 -0.13676598368392195 -0.10392699325756455
-0.1700850464237459 0.06185173617114969 -0.07751087827197178 0.05095532417981175 0.0013570213738686825 0.10207869993604365 0.021317077050715758 0.13748389999437996
-0.1390285286002904 -0.1816133771325276 -0.12905905409229132 0.0173884349622239 -0.11082656505640182 -0.05624216719346208 -0.23983732416176085 0.0992548094663482
-0.09790165536054038 -0.09957321215752324 -0.023571434544912177 -0.16237578700043082 -0.13371367904219436 -0.10899664588745159 -0.12227645821878033 -0.0811802831369522
0.006570473928526836 0.04620419504173193 -0.039041548352166076 0.07480810644157321 0.1443842208576955 -0.2026224747078538 0.10694172869782684 -0.06121607292391333
-0.1347098237332693 0.13299127574210495 0.12327300100567729 0.1040434020840525 -0.06545960497726283 -0.13757107065673835 -0.1437791288340125 0.021895914133922844

blocks1.SCINet_Tree.workingblock.interact.level.phi.1.bias f8 [24]
00000000: d23f 7892 02cc cdbf 447c dae1 03d7 af3f
00000010: de7c f605 bcf1 bbbf fa27 6a6d f321 c7bf
00000020: bf5b 719f a804 c8bf 646c 9e6f c353 b5bf
00000030: 612f 640c 8012 c13f e598 e0b3 fc6d 923f
00000040: b609 85a6 bb39 a7bf 39b3 af21 00b9 c83f
00000050: 4b97 54ac 0611 90bf de7e 5a05 6849 c3bf
00000060: 1575 602b cbd2 bd3f 9a6e 07ae 63f8 bbbf
00000070: aada 0c49 c75a babf f236 82c2 538d c13f
00000080: d731 6544 e08a ad3f 42ab 3e98 ea57 ad3f
00000090: 4ae8 752f 23cf b33f 6ba9 13f4 64ea 833f
000000a0: 2dae 44b2 036d c7bf 694f 54bf 4998 b6bf
000000b0: e2f7 e0aa ab74 9d3f 0c61 029b bba4 9d3f
-0.23278839256135925 0.06218731052398899 -0.1091573252256128 -0.18072359888566308 -0.1876421717194869 -0.08330937838620539 0.13337708096548354 0.01799769256481278
-0.04536234290800982 0.19314576763954408 -0.01568994929143423 -0.1506776834621552 0.11649770554545953 -0.10925887106662416 -0.10294766934826308 0.13712546346180648
0.057700165127787244 0.05731137379128494 0.07737941654878103 0.009724415491707735 -0.18301435665613167 -0.08826123162390122 0.02876537542783087 0.028948718391434133

blocks1.SCINet_Tree.workingblock.interact.level.phi.4.weight f8 [6, 24, 3]
00000000: d185 0241 4f7d a13f 3f1b 09e0 e83c afbf
00000010: 5ac4 7d73 ccfd 973f 247b 4fc5 83d7 a53f
00000020: 28b8 393f d62b 87bf 1fef cbce 738f a7bf
00000030: 33b5 2afb d046 a8bf c670 e747 a4ad bfbf
00000040: 913e 31da 6ac4 993f 4e0c 3579 9453 b5bf
00000050: b5ac f15c f612 b6bf 66a4 9efc 8053 adbf
00000060: 00c4 c47d 861b b43f 1d34 9124 3142 a5bf
00000070: 0a6e 8592 34ef 95bf ec6d e6b4 2c1c b5bf
00000080: 35b3 21f5 6f2f a7bf ab67 e088 42a5 bcbf
00000090: 21f4 1595 0292 ae3f b570 67df bac8 b43f
000000a0: e7d5 df2e 6672 9cbf a2d2 c2b6 5c05 afbf
000000b0: 3257 27ec 475d af3f 5818 e186 9b82 b43f
000000c0: 2e63 10ac 026a b23f bdf2 1ca6 53c1 933f
000000d0: a8f1 54df 0b06 b33f f63a 6c6f 2c08 c2bf
000000e0: 8d40 febf 4e9c b1bf b6d0 729e f043 babf
000000f0: beb4 b796 27d1 ab3f 58a2 3cf1 680a b83f
00000100: 1cee 4b4d e2ad b63f 4788 505a 389e b0bf
00000110: c3b3 7c58 f6d5 ba3f d071 4d3f d960 93bf
00000120: 1357 21b4 10f4 acbf 2526 8ef9 910a b43f
00000130: f457 deaf a9f5 9abf 73dc f720 7f7b 9cbf
00000140: c550 d87c a306 b6bf b6f3 446c bd1b cc3f
00000150: c2c7 9f35 7774 a8bf ae4b e573 246f 92bf
00000160: 53af 305d 7ac0 b73f 0899 b441 f0ba 53bf
00000170: 1ecd b8e7 2bbb b43f 9633 46c7 dbf3 98bf
00000180: b7aa 0905 e401 8cbf 1255 910f 7de8 bbbf
00000190: 9016 e288 d39f a3bf 04b7 1f8e 04c8 b0bf
000001a0: 82e0 3342 ce1b 8b3f fd30 5220 08fa 7ebf
000001b0: a4fc 7a6c 3260 b7bf faf9 2c34 fcd1 c1bf
000001c0: 1d87 b0ff b32e b3bf 426a d9e0 b53d b4bf
000001d0: f43f 9424 026d adbf 15a0 a7af 1abf 8b3f
000001e0: 1c89 c69f d9f2 a83f 17a0 2350 2011 bd3f
000001f0: 33f4 9d53 aa32 a83f ed26 7c68 c044 bb3f
00000200: db29 1a14 84bc 9dbf 44d9 cfef 9765 c03f
00000210: dc26 4ce8 5e91 bd3f 3c2f d161 e583 a73f
00000220: 0d21 e86c 3038 b63f e689 a9f0 f9e3 903f
00000230: aac0 2474 4adf b83f c239 c779 1fa0 a73f
00000240: 0a17 77aa 9ef6 b5bf d97e 777b e9a5 8c3f
00000250: 99f8 fae2 3468 ac3f cb57 7241 d193 b0bf
00000260: 4e03 8dd7 7258 9c3f 1a53 a93b 0779 a73f
00000270: 80b1 4ead 7042 923f 0ff8 f6b1 1bc4 b7bf
00000280: dbcf 252b 93fc 93bf 9d71 5425 e6a3 c1bf
00000290: d3ff 83f2 d6be c7bf 5429 e1f3 28d2 b7bf
000002a0: e421 7bb6 a0b3 873f 9a8c 6c27 62c3 adbf
000002b0: bdcf 71ce aa5f ad3f 79ac 089c e182 c0bf
000002c0: 3e20 7c31 ca95 a0bf 48dc c657 0987 aabf
000002d0: 5e62 0eef 696c a2bf 36ab 6f30 652a c23f
000002e0: 8512 43ba a30f b23f 11b5 114c 6b32 b53f
000002f0: 36f5 3172 2e37 9fbf e623 432b 5f91 a3bf
00000300: 851a 386b f1e0 b33f 2835 f97e 173c 713f
00000310: ce37 74ed ae94 78bf 9327 db6a de0b b1bf
00000320: d7d7 b318 35e7 90bf 1909 2093 ab55 bebf
00000330: d284 d1a1 1ced b13f 0293 a27c 4dde ad3f
00000340: 87cd c25a 76fb b6bf 6359 c260 b074 a43f
00000350: 4a3f befd 5c08 b03f 4b93 4134 7a2a bebf
00000360: cbb1 1a4f 8d30 bc3f bbc7 71c0 002d 97bf
00000370: e67c 4dec e819 79bf 5516 123a 2421 a8bf
00000380: a5ce 2dbc 5974 be3f ecd0 2305 77c6 bc3f
00000390: bbd6 9c7c 3d47 b0bf cc23 5313 260b 9dbf
000003a0: 1729 7889 0263 80bf 860e 2db9 3936 a73f
000003b0: d7e2 feed 529f 8abf df4b bd9a 4607 91bf
000003c0: b4c0 c063 389a b7bf 87a9 bb41 ae97 c2bf
000003d0: 9f59 664f f3d6 8ebf f281 88fc 4405 c3bf
000003e0: 6b50 0b62 4c3a 8bbf f818 acdd 549e b2bf
000003f0: 4d5d 4a6f 5780 abbf 7644 f986 7f2d bfbf
00000400: 107b 0ffd 877b c1bf bd55 7541 e6a5 c1bf
00000410: 1f27 0728 5850 823f ebdb 0302 f789 933f
00000420: f709 747c 3400 ad3f 67b2 6220 985d 9e3f
00000430: 909c 97b6 9e21 c4bf 3775 5774 29c0 74bf
00000440: 9e88 6dc3 af90 9bbf 46b0 3a2c b8dc a6bf
00000450: b17b cdad f0c6 823f f67a 2748 ac61 a43f
00000460: 9e80 eaa1 4dfe 6abf 18bd a354 934c c4bf
00000470: 4efd 1fa0 71a0 ac3f 8542 b7ab 2591 a7bf
00000480: 0922 829a 91c1 96bf c40e 5f44 9a03 d53f
00000490: 6e86 c857 1bfd d23f f4ec 7413 5e63 aebf
000004a0: 1a12 1e60 4484 8abf ab1e dc88 5858 abbf
000004b0: 6977 48ef 2613 c1bf 5190 b8e2 2934 4ebf
000004c0: a50f ef07 61f4 c7bf 2f0e 83bc 953d c6bf
000004d0: 6716 1219 3b96 c7bf 97f2 5b47 c8b9 b83f
000004e0: ed34 818d caa5 b9bf cd8c adaf 321f 7a3f
000004f0: 1a75 13b6 4a46 b2bf 67b7 2269 1af9 bbbf
00000500: 959c 6277 92ab b9bf 23f0 50c6 c36f 92bf
00000510: d3bb fac7 9910 a43f a87b bd6f e795 b23f
00000520: f58e d393 dfcd c33f 66d0 66f4 75e9 b33f
00000530: f1b2 489c e15d a73f 7936 dcee 6d14 c23f
00000540: e09f e8c4 cdf2 93bf 597a b86f 8031 a23f
00000550: 1868 87fe 5d87 b8bf be99 b6c0 b918 a7bf
00000560: 337d 1557 4d62 c7bf 76af 7447 7133 bcbf
00000570: 5e60 da4a 4fd4 33bf f6aa 3747 0ef8 a23f
00000580: 1dcc 6e86 7a39 a0bf 5ec6 a2fe 175a 65bf
00000590: 2ed4 2f85 2899 b03f bcb7 7214 a37c c0bf
000005a0: c88f ead7 9b9a b8bf a3f2 fa4b 2443 933f
000005b0: dba6 b8a2 df73 bbbf a590 4e73 6bde d23f
000005c0: d8d0 6919 1d99 c13f ca87 684f 7217 c03f
000005d0: a56f 2e14 b2d2 a6bf 2df8 1218 13b3 c0bf
000005e0: ff2c e1df 41f8 acbf da24 5fe6 e3e6 bfbf
000005f0: 9156 ab68 5ccf b13f 5129 3190 75f0 b03f
00000600: a2a2 7cf3 6226 c1bf c8bb 8477 81d4 bbbf
00000610: 59e1 558f 2ee1 a6bf 25b9 ca7c 897a b7bf
00000620: 4589 cd87 9521 c3bf 0dd1 a0dc f177 a8bf
00000630: 1421 898d 8a58 b2bf 56ab daea 23ef c0bf
00000640: bbb2 0400 0131 91bf 9f45 d534 5301 b1bf
00000650: 209d 52b6 ca4c b4bf 4ae6 f994 ab54 b8bf
00000660: aeb6 d8f2 adf1 ccbf 2baa e286 bddc c3bf
00000670: b052 5378 0434 983f b6b2 4dac 58b6 b73f
00000680: 7b11 83de 7cb2 c43f 41e2 1bfc c156 bf3f
00000690: 178e ec9a ef2b b53f 45d3 0468 0692 c43f
000006a0: eb39 1464 64fa c33f 5fa8 d2f6 7e33 a3bf
000006b0: 4f04 bfd1 a654 743f aeea b3c1 ecae c2bf
000006c0: ce39 9d41 649c 873f 5ed7 368e 90a6 cb3f
000006d0: 17cf fb89 b9d5 acbf 5f9f e8c8 b058 c73f
000006e0: a1b3 7454 b8ad d1bf ef4c f5bf 0965 903f
000006f0: 46c6 eb94 06ef 80bf b383 7527 7004 c0bf
00000700: 1334 dcd4 2ff2 c3bf dd25 7ae0 40dc cfbf
00000710: 2e71 095a d60a c0bf 28dc 6f73 9f4a d0bf
00000720: e16b 6bad 9b81 a8bf 564c 0ef2 089f c2bf
00000730: 4c83 1a76 7d3a b7bf 0e8d 6fb6 1bf0 713f
00000740: 717d af9b c3dc d1bf a596 4937 911c bdbf
00000750: 96a0 7c25 74a9 bebf a97a 3a82 6891 d63f
00000760: 8b90 c3f4 310c d23f 151a aee3 081f a63f
00000770: 8bb3 eac0 6582 febe 94fa 7105 470e 9d3f
00000780: f31a 3aae 05d5 b2bf 1651 804e 104b ad3f
00000790: a224 b04f 7c8b 8c3f 3a78 a66a abf2 bbbf
000007a0: 23a4 6d2e 980e b0bf baae 2b86 db80 c9bf
000007b0: b21f a033 6b66 b33f 9f90 0711 f079 c2bf
000007c0: 3968 ae62 97fe 923f 403e 46b0 5a6e ae3f
000007d0: 5d38 32b3 fe6d 9ebf 971d d906 07b1 b3bf
000007e0: 8aa6 ab70 12a4 c2bf 96bd 5529 f5a3 98bf
000007f0: 12b6 2789 c9a5 b0bf 076d 04ef 7656 cb3f
0.034159161268018 -0.06101157889184216 0.02342910246756378 0.04265987189841372 -0.01131408100556193 -0.04601632975933811 -0.04741528573991118 -0.12374331241102529
0.025163335387616007 -0.08330657920036907 -0.08622684258596076 -0.05727770885216259 0.07854500360987515 -0.04152062960984202 -0.02142030853552338 -0.08246116081721028
-0.04528379313783263 -0.11189666597093033 0.05970771856207358 0.08118789629174013 -0.027780148135169738 -0.060587785062499636 0.061258552148201764 0.08011791270209423
0.07193009091168953 0.019292170537698484 0.07431101038395715 -0.14087443771901292 -0.0687913149579364 -0.10259918087359918 0.05433009829344247 0.0939088429410132
0.08859075915454934 -0.06491424755998408 0.10482730541543987 -0.01892413567417056 -0.05654957007270247 0.07828628866823147 -0.02632775436321562 -0.02781485213014574
-0.08603879735921101 0.21959655558194208 -0.04776356248466086 -0.018002099584304147 0.09278073096419108 -0.0012042375809158696 0.08098101050636727 -0.024367746389134824
-0.013675481227627058 -0.10901624326773554 -0.0383287529557893 -0.06555202932187504 0.013236628909439444 -0.007562667601757275 -0.0913115992398042 -0.13922073886529046
-0.07493138306065501 -0.07906662692531888 -0.05747229286691882 0.01354809616618983 0.04872779918084033 0.11354257542154787 0.04726154585566924 0.10651781607534945
-0.029039443709317197 0.1281003876644694 0.11549943133664037 0.04592816180283285 0.08679487856727892 0.016494660676821392 0.09715714774643183 0.04614351617384528
-0.08579436933277065 0.013988327103049357 0.05548253317600533 -0.0647555146009317 0.02768115463846082 0.04584524730004187 0.017831574037403097 -0.09283612341729984
-0.019518184193159854 -0.1378143007540417 -0.18551146356185075 -0.09305053667154556 0.01157308155906462 -0.05813128215074777 0.05737050790858642 -0.12899417990533715
-0.03239280561507528 -0.05181149670118451 -0.03598338168302882 0.14191880097436077 0.07055114076053755 0.08280058486134957 -0.030483937950056737 -0.03821847346404876
0.07765110843329566 0.004207698613368373 -0.006001170454750194 -0.0665873537901958 -0.016506986267778103 -0.11849472371980986 0.0700242896141561 0.05833665987419147
-0.08977451053470108 0.0399527662386159 0.06262761301900102 -0.11783565307412151 0.11011584454781269 -0.022632610078694642 -0.00612822518891607 -0.047127849663450995
0.11896286815845743 0.11240333438383104 -0.06358703892041266 -0.028362841538896608 -0.008001346416695072 0.045335582594387566 -0.012999198806811147 -0.016629317469163737
-0.09219696460127375 -0.1452539273225961 -0.01505842290934539 -0.14859831171726473 -0.013294789068290144 -0.07272844707413018 -0.05371354325796549 -0.12178799672371263
-0.1365823732039293 -0.13787534900863632 0.008942307206683929 0.019080981729498275 0.05664218920903246 0.029653908707290812 -0.15727600017200816 -0.005066072398645808
-0.026919122984857873 -0.04465270557315697 0.009168510726963537 0.039807685668838674 -0.00329508936495422 -0.15858689911645096 0.05591158942842843 -0.046029259883316555
-0.02222278123420732 0.32834488560568453 0.29669841358745586 -0.059351863741960914 -0.012947591956398209 -0.05340840025570278 -0.1333969753622413 -0.0009217457313224297
-0.18714535605806507 -0.17375442223247847 -0.18427218174126667 0.09658481352011915 -0.10018602328019073 0.006377408974773857 -0.07138506837096195 -0.10926976267611864
-0.10027423300435807 -0.018004473666437214 0.03918915334849484 0.07259985425979087 0.1547202560242266 0.07778107849918711 0.04563813240779336 0.14124845660301213
-0.019480910437920218 0.03553391803528844 -0.0958155390175367 -0.04511051633317063 -0.18268744232316578 -0.11015995020414757 -0.00030257163857916834 0.03704876536706607
-0.03168852702165046 -0.0026064366002962877 0.06483700992232919 -0.12880362032359283 -0.09610914250748614 0.018810813081233346 -0.1072368404644765 0.2948254228633778
0.13748515835653197 0.12571553113326522 -0.044576230014370645 -0.13046492267125256 -0.05658155305772005 -0.12461685537631997 0.06957032733347492 0.06616911669076343
-0.13398396386152905 -0.10871133010799305 -0.04468675136280593 -0.09171351715733474 -0.14946240550041004 -0.04779010599341591 -0.07166353183231805 -0.1322979828595076
-0.016788497568245058 -0.06642646827574204 -0.07929675055730856 -0.09504196536172418 -0.22612547261944854 -0.15517396055413832 0.02363593086632204 0.09262613493565194
0.1616970144733719 0.12241756825449902 0.0827016595108535 0.1607063300995383 0.15607886206312513 -0.0375022579476798 0.004963542592976002 -0.14596328218597904
0.011528762104401926 0.21602065033010381 -0.056318090528206514 0.18239412126535634 -0.2762280297054592 0.016010429707716985 -0.008268405360897135 -0.12513544012747743
-0.15582845586359947 -0.24890910111234535 -0.12533072849590482 -0.2545546176256175 -0.04786383144320162 -0.14547836131223119 -0.0907362378443512 0.00437937569856507
-0.2790993709913528 -0.11371715163985614 -0.11977315821843812 0.35262501447315714 0.28199433233954413 0.043205526154498276 -2.90959979404762e-05 0.0283747765611176
-0.07356296065891481 0.057213315565748754 0.013937922651182714 -0.10917159417883307 -0.06272269376280852 -0.19924491931248217 0.07578153620136055 -0.1443462451126196
0.01854931392481538 0.05943568612849193 -0.02971647232748641 -0.07691997449102526 -0.1456320810460066 -0.024062948844798614 -0.06502971266282767 0.2135761897160153

blocks1.SCINet_Tree.workingblock.interact.level.phi.4.bias f8 [6]
00000000: 11b8 f197 3b1a 5b3f 43e6 bec2 8de0 6ebf
00000010: 90b5 6ca2 12bf d3bf c873 d35e d535 81bf
00000020: d553 ce08 4dc8 99bf d6ed 9063 1d32 b23f
0.0016542036026083765 -0.0037691849483650077 -0.3085371576479128 -0.00840346046100561 -0.02517814985511165 0.07107719116986941

blocks1.SCINet_Tree.workingblock.interact.level.psi.1.weight f8 [24, 6, 5]
00000000: cf8d 8add 4f32 b1bf c68d 8abd e63c b4bf
00000010: 97c8 d509 95c6 973f 0647 c59e 44f9 c2bf
00000020: d08d 8a9d 7e87 b1bf 3b13 5dea 7f08 b83f
00000030: bf83 885b 2b0e aebf ca61 192f 20ee 60bf
00000040: b499 a0bc 7ca2 8e3f 63c0 5647 a856 c5bf
00000050: e845 aae2 b87e abbf 9aae 9227 d2b7 c5bf
00000060: 22dd bcb9 e044 b23f 2415 40a3 2976 a63f
00000070: 7e72 7306 22d0 c3bf ad7e aa82 a55d b4bf
00000080: f4e4 5d2d 83fd b0bf cdd9 4118 2404 aabf
00000090: c401 1471 8c7a babf 8b32 a542 a896 b3bf
000000a0: 8aa2 54f3 5b0c babf cd59 7fcd e1a5 cdbf
000000b0: db69 da4c 00e0 d6bf 12fe 51fb f9b8 c9bf
000000c0: fa4d f45f ecbd c2bf f378 d3a9 92c8 a3bf
000000d0: 4106 f4ea 5e40 c4bf 76a6 b908 97c8 a7bf
000000e0: 379a 0e1a ffc6 bcbf 422c 7df4 f8e8 bdbf
000000f0: 9ebb a214 ea04 91bf 5a44 5deb ba04 963f
00000100: 80a8 6bfd 93a6 c23f 5f44 5deb 89c3 933f
00000110: 81a8 6bfd a103 c23f 0a51 a15c 4ff8 c03f
00000120: e84a 08a5 94e0 b7bf 2a0d b87f faea a8bf
00000130: a1ef b694 d367 bd3f b601 37d6 56bd b43f
00000140: e97c f343 5e79 c43f 23c9 b44b bc39 b93f
00000150: 7e1e 74a2 c1d5 b8bf 2e2c 3388 3c35 a13f
00000160: 27b1 9fca 04b3 ba3f 8037 6c65 34c3 a33f
00000170: d3b2 61b3 46e1 c1bf a5f6 e271 ffc4 b5bf
00000180: ae95 b79d f7a0 c63f 4191 4817 72a7 9abf
00000190: 6b18 ca98 8f59 9fbf a2dd fa9a 6c89 a9bf
000001a0: 62bf 6f86 7ea1 ca3f d3a4 cb20 fc21 b43f
000001b0: c822 c8dc c1c2 9bbf aa1d 6dd7 a540 b9bf
000001c0: d924 39f0 b22d b3bf 772f ce3b 2160 b5bf
000001d0: 992e 48ed 238b c63f 0b5c ce4e 0c79 b53f
000001e0: b654 bca3 3149 bd3f 9ca9 7847 09f3 a03f
000001f0: 3853 f18e c691 963f b654 bca3 5504 ba3f
00000200: a7a9 78c7 d38b a33f aab9 d37c f070 c33f
00000210: 6220 8e38 7183 a1bf d4c2 b1e6 6501 a23f
00000220: f81f 4ea3 ac7a c83f 2ebe 661f 0841 b1bf
00000230: cb63 1459 9613 c63f c6f5 42e2 3d4c c3bf
00000240: 36b1 422d 6aad c03f 80ec ddab b5c2 a3bf
00000250: 55b2 0f42 8521 b23f 234c bdb0 24c2 ba3f
00000260: 595c cf8d b7ac b2bf 2bc6 7a49 28c4 c6bf
00000270: f301 47bf 1dd3 c5bf a441 392b 051f bbbf
00000280: 0f5b 5e91 9844 bf3f ddf0 39db f455 b7bf
00000290: c470 7a17 f37d a4bf db0c 26b1 2478 b33f
000002a0: 5d24 5063 864b 803f 34f8 bfaf 98cd c93f
000002b0: 8c3c b0ab 2287 6ebf 3d60 5c34 b830 b5bf
000002c0: 4974 1dbe 2448 b7bf 8108 c946 e11d b4bf
000002d0: 1a9c 3f56 9447 933f a1f3 c7aa a8c0 c63f
000002e0: 14e7 8f55 e5dc bd3f 07ce 1fab 1cc6 a83f
000002f0: 690c 3875 a042 c0bf 7883 1e56 4da6 353f
00000300: 36c0 39dc 2f5a b83f ae28 82f1 6ef4 adbf
00000310: 76d2 ae71 061d 953f 5192 8531 5721 c93f
00000320: 08e6 48f6 b495 c43f 69a5 7609 b91d 783f
00000330: 7ad5 bc26 fb5a b6bf b31a a6ca 0d3f 953f
00000340: 73b6 df12 2356 bebf 186c 9e0f 583c c0bf
00000350: d67e a7af db8e c53f e666 233e 6224 c6bf
00000360: 1827 485f 363e 9f3f 7ed5 05ee 60ed babf
00000370: 15f3 25a5 0777 b43f 1863 1a62 fdab cdbf
00000380: 8814 2632 a4fb b6bf 15ce 5ed3 cab4 86bf
00000390: 0429 eb5e fb3c a13f 9808 4ce3 1ee2 ae3f
000003a0: 1b35 d9d7 72b0 c03f 32b9 e853 4389 9bbf
000003b0: d979 33ad 0f13 793f a79c 06b4 25dc c73f
000003c0: feb3 ef4c 171a c4bf a897 20e6 70f7 bd3f
000003d0: b62f 414c 15a3 a33f fb40 fbce 0a82 8ebf
000003e0: 47d0 be33 493e adbf 1c32 0c19 f860 ba3f
000003f0: 9e3f b310 3b2a c3bf be6a 4795 c1e9 c3bf
00000400: ad9f ffb8 db9b bcbf d6e3 420d 468a c4bf
00000410: 2ed5 fd5f 49a3 b5bf f61e d155 2980 c03f
00000420: fb94 a8e3 0d7c b43f c55a b9ea 3edc be3f
00000430: dc6a 7aa1 42d6 c6bf 84dd 323e 9053 b83f
00000440: 86c9 730d 82fc a33f f023 78fc 2619 b13f
00000450: d2a9 e0a5 6979 a63f bf32 f342 580a b43f
00000460: 935f bea0 663f cabf 5f90 acee 0f06 a2bf
00000470: c7b3 3061 0be9 cdbf 975e ac7e ddb5 d1bf
00000480: 347e a637 c2fa c0bf 2534 8aca 58bb c5bf
00000490: 73cf b8ac 105b c03f a5b1 f8fc 1608 94bf
000004a0: d07c f6d3 597d c5bf 955e 2955 31ae a0bf
000004b0: 6461 96af 4ee1 cb3f f73c d3a0 8a5c b1bf
000004c0: 6461 962f bbf4 cb3f 6461 962f 17f9 cc3f
000004d0: 287a a6c1 c14b a8bf 336e ee1b 5680 72bf
000004e0: 6ff2 b2a7 f7a0 ce3f 9093 bb6c 1b75 ce3f
000004f0: d28a 0573 f687 c83f 02f5 183a 8dc3 c63f
00000500: f1c1 377d 5596 d13f b1a8 d551 0776 923f
00000510: 615e e18c 8a42 c53f aec0 33ca 4ddf c93f
00000520: be22 1cde 723b c63f 5520 f77e e2c1 a8bf
00000530: 434e 397f 6d17 c73f 8f82 f7c8 80af c93f
00000540: c606 bf02 e3c3 b8bf 8fde 7b0b d246 893f
00000550: 1762 de77 5394 a3bf b12e 471a 0e9a cc3f
00000560: ecef 1f67 ebcc b83f 2951 c600 d8bf b5bf
00000570: 0a4d 5a6f e1d4 c23f c141 72d9 c654 b93f
00000580: 69b9 5127 db7c c63f 545f b60d e55c 973f
00000590: d1e5 5df8 be01 c93f d0b6 7f65 8752 83bf
000005a0: 7996 a36c 5780 aa3f f434 aee9 d9a6 bdbf
000005b0: 4e1a d784 b95b c1bf f334 ae69 9b1b b2bf
000005c0: 5a1a d7c4 4143 c0bf 5598 efe7 af87 70bf
000005d0: 0cf5 6ac1 576c c03f 5639 0572 d48d bd3f
000005e0: 1712 5fb1 1e0a babf e77b 2732 1fd9 bd3f
000005f0: 7a32 4b04 5667 a4bf e303 9db5 f9e9 a83f
00000600: 83f7 f0b4 f70d c9bf 618c 2c51 f844 b83f
00000610: 59dd aa03 3641 c53f 798f bc55 8419 be3f
00000620: 07df e1a8 a21e 663f 36a3 48e0 20cc b53f
00000630: 5692 d5d6 feed ad3f 26a4 f920 9253 c2bf
00000640: cc50 1cc0 35ae babf 26c8 567f 3059 b73f
00000650: 9c00 794e 8202 a1bf 32c2 a8c9 c1e7 b73f
00000660: fe32 a380 33f6 c03f 7490 d974 2c79 b13f
00000670: 06fe f3c0 5550 813f d400 3e25 f6cc c3bf
00000680: 49d3 f52d 3617 c03f 4896 6334 3e83 c43f
00000690: 080b 6dc6 4ca1 a1bf 090b 6d46 4114 a0bf
000006a0: 090b 6dc6 8245 a0bf 2fbd 641e 84f2 c53f
000006b0: 2fbd 64de 1c47 c83f e933 bfba a739 c03f
000006c0: 73d2 2b93 3f59 b8bf 6c05 bc71 09f2 c53f
000006d0: a491 bed4 5a10 b1bf a2df 9f32 31f5 943f
000006e0: 6f97 70c7 d9cd c8bf 9906 93d3 115f c13f
000006f0: e9b0 b0af 4d90 aebf 8001 4465 517b 7bbf
00000700: 1a3d 1b1f 4d30 ab3f 523a 2646 f849 9d3f
00000710: d501 2ef8 5514 8b3f 17da d6ca cef3 cb3f
00000720: 69ef 9610 7b41 be3f a9f6 0c43 1d79 b43f
00000730: 4d4a a1be ff3c a73f 8436 a480 2a57 c43f
00000740: 4e11 733e f04f ca3f cc2a 81b8 e7f3 b53f
00000750: 57c2 eb8e 2e0f c23f b577 3896 0d8e b53f
00000760: 460a 7b40 a2ce b2bf 20a9 5684 19ae 7ebf
00000770: b1da 4537 89a1 ba3f 2e92 9da6 28de c23f
00000780: 532c 6f81 b55f c33f 484e 437a c57d a4bf
00000790: 532c 6f01 f010 c93f 5263 790b 4db3 9f3f
000007a0: e958 de42 239f b23f 5e87 3bec 3c88 b73f
000007b0: adf3 2852 065e 9c3f 0afe 56af c151 b2bf
000007c0: 35cc e28a 7cb6 a7bf 1771 11b2 1505 c0bf
000007d0: 4ca9 f92f 547a a2bf 05eb 8c9b aaca 9d3f
000007e0: 370f c6b9 1123 b4bf 607c 024c f605 bb3f
000007f0: 5c92 51bd 6ccf b03f 3669 9ba1 b858 a2bf
-0.06717394980164858 -0.07905428054305394 0.023218468404089334 -0.1482320571181434 -0.06847373338910434 0.09387969466940842 -0.058701853679174125 -0.0020666721909885265
0.014958357340287921 -0.166707072099146 -0.0537011887255508 -0.16967226917528394 0.07136349234211939 0.04387025945474424 -0.15478921236980975 -0.07955393257224826
-0.06636829240405345 -0.05081284328564415 -0.10343244324395245 -0.07651759745676594 -0.10175108614624598 -0.23162481817298755 -0.35742194657509935 -0.20095753451822468
-0.14642100034016875 -0.03863962481567453 -0.15821444008183685 -0.04645225507267707 -0.11241144548567027 -0.11683612793892542 -0.01662030936193625 0.02150241910505133
0.14570855974244878 0.019300608625887224 0.14073586343812752 0.13257782004314606 -0.09327057866202504 -0.04866774376935219 0.11486551647879974 0.08101408700804921
0.159953864268551 0.09853722427650217 -0.09701166359092814 0.033609286905253874 0.10429410883779565 0.038598668461516716 -0.13968738325947658 -0.08503719835695252
0.17678733063727975 -0.02602937953101159 -0.030615085316206974 -0.04987658874363922 0.20805341305048858 0.0786435680453395 -0.02711012754483269 -0.09864269742421664
-0.0749160610659091 -0.0834980746278101 0.1761212261775327 0.08387829708077292 0.11439810035183737 0.03310421941235406 0.022040464853790825 0.10162863967373678
0.03817617235138764 0.1518841371066178 -0.03420594992991323 0.03516691628545279 0.1912437245739509 -0.06739855543741477 0.17247275685875105 -0.15076421306541316
0.13029219827638777 -0.03859489176735398 0.07082398283791609 0.10452489199569519 -0.07294795238645814 -0.17786124790068078 -0.17050525512423995 -0.10594208054795345
0.1221404414085152 -0.09115534164624557 -0.04002341901397835 0.07605199170034231 0.007956552415651236 0.20158680516755256 -0.0037265469704901907 -0.08277465132084756
-0.09094457284432268 -0.07858093240887067 0.01882774139803809 0.17775448168677335 0.11665185297888697 0.048386474503697534 -0.12703328822690033 0.00033034694762972645
0.09512614370919512 -0.058505503636369624 0.020618534744885918 0.19632997434668423 0.16081869149802253 0.005887720871592486 -0.0873257608007715 0.020748343938545143
-0.11850184641635923 -0.12684155237806816 0.16842218472355935 -0.17298534425827156 0.03051075893930663 -0.10518461047271008 0.07994125158252204 -0.23181121149243533
-0.08977724289259659 -0.011087021422873137 0.03366838010477305 0.06031891369458825 0.1303847841212836 -0.026890804287341648 0.0061216938367736 0.1864058617622721
-0.1570462346711849 0.117056900199343 0.03835360103457168 -0.014896473352024922 -0.057115829054425186 0.10304213153376235 -0.14972627940596522 -0.1555711726094468
-0.11175320879522017 -0.16046977660678746 -0.08452280610602678 0.12891117754246978 0.08001791771001258 0.12054818373267569 -0.1784137047260036 0.09502507704279678
0.03903585828983851 0.0667900434856532 0.04389505529282513 0.07828284868737521 -0.20505984162150223 -0.03520250118734291 -0.2336744522630438 -0.2767251717609524
-0.13265254704764262 -0.16977987184182655 0.1277790873879173 -0.019562110128548266 -0.16788790559528488 -0.032578984876349505 0.21781333516697565 -0.06781832147975196
0.2184061033592669 0.22635164092640558 -0.04745297898192674 -0.004516922343920582 0.23928733528545673 0.2379488259240614 0.19164925209323386 0.17784276329795295
0.27480065563489037 0.018028368348873062 0.16609317664073145 0.20212719319488798 0.17368923039636813 -0.04835422325010145 0.180402457352658 0.20066842854341302
-0.09673899476095035 0.012342110610446681 -0.03824101293793463 0.2234513881979772 0.09687682407087522 -0.08495855349457727 0.14712160050530826 0.0989498406290812
0.1756853048313574 0.02281530281251716 0.19536578299793786 -0.0094347551202775 0.0517604179492936 -0.11582719760027144 -0.13561171518650145 -0.07073375063028546
-0.12705251799907807 -0.004035651333628894 0.1283063597128734 0.11544540198994943 -0.10171691732745845 0.1165942666479932 -0.039850891136301095 0.048660090846631275
-0.1957387574674919 0.09480239850795293 0.16605258158754557 0.11757685750177228 0.002700154967040794 0.08514600253751045 0.058456386303792726 -0.14317537889590531
-0.10422073307228458 0.09120467289793108 -0.033222267226393515 0.09338008092232356 0.13251346379401946 0.06825521328716083 0.008454008055649897 -0.15469242876498035
0.12570836300042235 0.16025521810586185 -0.03443374559585349 -0.03140453324023979 -0.031780325624387436 0.1714635036855525 0.18967018946703137 0.12675949686527524
-0.0951118215851439 0.17144887975158996 -0.06665580457644765 0.02046658393371071 -0.1937820648028565 0.1357137950017673 -0.05969469804435496 -0.006709402038041268
0.053102884337585546 0.02860248497159496 0.01322238124498735 0.21837792305241585 0.11818665652293493 0.07997305762270436 0.04538726045634132 0.15891009599038253
0.20556452798167374 0.08575294737344591 0.1410883138519405 0.08419880788321062 -0.07346548151239415 -0.0074902531390910465 0.10402734374461421 0.14740474830172573
0.15135830707581252 -0.04002205960719302 0.19582939214737624 0.0309574163678435 0.07274074919255082 0.09192257659335953 0.027702425732275483 -0.07156000643498586
-0.04631413646111363 -0.12515517420514108 -0.036089545112946014 0.0290934235992877 -0.07866011414995176 0.10555972438531702 0.06566505071675394 -0.03583313915960888

blocks1.SCINet_Tree.workingblock.interact.level.psi.1.bias f8 [24]
00000000: 63d3 bab3 63b1 b3bf 7617 6a10 3056 bb3f
00000010: 4ac4 ecbb 61b2 b53f f37d 3c0a 465c ce3f
00000020: ec1b 0d70 0446 c0bf 682a 6bba 6bc3 d03f
00000030: 12a6 20ec 267c bd3f e428 2dd4 fedf c53f
00000040: 0338 29de f575 c93f bf0b 2e00 4237 b43f
00000050: d025 4043 6bda 61bf 49c9 cf70 27b2 b8bf
00000060: c187 8dcd 711e ce3f 670e b6b3 f785 c8bf
00000070: 74d7 4628 11d0 bc3f 71a7 39bd 12a1 9ebf
00000080: 46af 02ca d787 bcbf bd03 98a8 9b66 cd3f
00000090: 48df c9d9 5550 a1bf 8f58 4afa 83b4 b23f
000000a0: 609f 7e0d 65af b7bf e2ed bbbf 45b5 dabf
000000b0: a685 1d58 e82f c93f ffe6 33e6 66f7 693f
-0.07692549837049749 0.1067838707041043 0.08475313985833668 0.23719096660441572 -0.12713675948381764 0.2619275398725791 0.1151756597979772 0.17089829788375888
0.19891236636834728 0.07896816734687116 -0.0021793456053315965 -0.09646841530028384 0.23530409371147523 -0.19158836626967288 0.112549850781617 -0.029911320495024044
-0.11144779855629591 0.2296938489162396 -0.033816035113828635 0.07306694851499372 -0.09252006129702073 -0.4173139927295023 0.1967745237589444 0.0031697282553267976

blocks1.SCINet_Tree.workingblock.interact.level.psi.4.weight f8 [6, 24, 3]
00000000: fa88 5921 6705 44bf 0585 4cba 1564 a43f
00000010: 3c63 6942 7d62 a03f f7a0 c46c 2ff2 a3bf
00000020: c40e ded5 21a3 b5bf 557e 0701 02c5 92bf
00000030: 56c3 4b5d 3568 aabf 9b82 b8fc 9230 babf
00000040: b91b 2122 e605 85bf 2b06 cd03 66a6 a0bf
00000050: 26c9 4b13 f2e7 a2bf 1c44 32c9 f4aa c2bf
00000060: 13ae fc5e 09fe b43f c6a7 a7e7 1034 abbf
00000070: da1e f77f 89ee ae3f e6da 1842 33e7 c2bf
00000080: ce76 ca28 f8a8 a6bf d529 51ea fd9b 97bf
00000090: 94f4 ca10 231a c6bf 9864 bcaa e288 82bf
000000a0: be26 0299 71d9 a6bf 2742 9b8a 4542 b1bf
000000b0: 766b cad7 9674 9cbf 6879 fc17 2659 c2bf
000000c0: 9bb2 07f3 bf34 8a3f 92fc 4129 bf84 a53f
000000d0: 91b0 aee8 be78 a0bf 6c2c 5ee6 9902 b4bf
000000e0: 99d5 a43b 9bee ac3f 8492 5c23 86a0 b6bf
000000f0: a429 fefc 1210 bbbf b225 005b 5156 a83f
00000100: 3758 20ef 35b3 b03f c692 b291 f9ae b6bf
00000110: fa47 67fa 12fb babf 06e5 4fa2 8a70 aabf
00000120: 6f73 f997 a027 aebf 846d 746e 7c04 a13f
00000130: a4e1 79dc 1798 c8bf 58c8 4846 fff1 b63f
00000140: fd07 6522 47a0 b8bf 603b cb84 a0dc ad3f
00000150: afd6 a62f be56 b2bf bb4a db62 041a 6f3f
00000160: e146 0bb1 5fb3 abbf b323 e56b 8e84 ad3f
00000170: 3bae edae 46f3 bebf 4d38 2bf6 a316 af3f
00000180: 5693 6917 7cac ba3f d80e 72c2 c03b b53f
00000190: 4acf 32a3 c9ab 963f 5c03 99af e269 c3bf
000001a0: 8e16 75b4 2ed0 c7bf daba 6289 e95d 813f
000001b0: 42ba bfab 464a b73f 97c0 b86b 5c9d c13f
000001c0: dd94 c4c7 96d1 b93f 7c2b 4736 2ff4 babf
000001d0: 5a2b d8e1 dd17 9d3f c17c 80b8 6c90 bcbf
000001e0: 374f b70b fe81 9d3f 9084 f50a d52b 9b3f
000001f0: 97a1 7cf4 3778 77bf 79d1 e2de 88fd b63f
00000200: f09d 094f c945 b03f 79e9 9ccb c10c 963f
00000210: a95c 51d0 f5ad b5bf ff8f e6d3 2cb5 bbbf
00000220: 648c bdac 7a19 a4bf 628a b67e 1fe3 81bf
00000230: 92d4 3944 a70e 863f b02f 3b1e c758 653f
00000240: a08c 606e 4b02 c5bf fc5b 3813 0122 743f
00000250: 7b5c 6555 6b1f a73f 5580 ada8 5214 c33f
00000260: f0db 3364 96ae 943f cc2d ab4f 7498 51bf
00000270: 755b d9dd 8088 be3f 63b9 7884 7b96 b03f
00000280: 1b06 183f ba63 b33f 9d15 7532 112b c53f
00000290: ac93 5ded 583f a13f 047b 255e 1add 73bf
000002a0: 7042 e5c2 a2c6 b4bf 703a 048c 615b 9abf
000002b0: 42af aefc 4934 b2bf f852 b4d2 968f c03f
000002c0: b32d f0aa c752 c03f 21ab a931 2bd6 a43f
000002d0: ecce 259f 1630 aa3f 4c4d 6f7d d6ff b43f
000002e0: bb6a f15b c8f9 bc3f 7c92 8e1c 1397 c13f
000002f0: 95c9 1a28 83d3 bb3f 2099 da80 03a8 9e3f
00000300: 1c3d d8ba b70b c33f f65d cd1b adc1 c73f
00000310: f50e c545 f3c9 c33f d4d7 d16b b008 97bf
00000320: 8fe0 9dd7 921f 84bf 596b 7456 b091 b53f
00000330: 8262 a6d3 98d3 503f 5444 ea0b c1d1 a7bf
00000340: 9417 a64f c442 c7bf e317 a931 3ed3 80bf
00000350: 8eb9 62db f3c6 b03f 317a 7721 19c3 a23f
00000360: 32ee 2ee8 70ad b73f 4594 efa0 8cc9 a63f
00000370: 127d dd7c 30c9 c13f 4a32 eb56 e838 b53f
00000380: 6796 e0dc 43f4 b63f 21db 1ba0 b14c adbf
00000390: dce7 3ff3 3d19 aa3f 9246 cf8c 4010 a6bf
000003a0: c83c cfe4 5580 a13f 16dd 7a0c c48f ba3f
000003b0: d525 95c0 1406 813f 77ab af39 4f77 a13f
000003c0: f1bb 3c30 484c c8bf d45e 8703 4df5 aabf
000003d0: e663 9a8f 77f8 aa3f b1b7 3565 2bb7 a2bf
000003e0: fec5 09cb 474d ad3f 7fea 496e 87fb 8fbf
000003f0: e944 fd10 2181 b2bf 782d 8791 9cb1 b6bf
00000400: 5930 bec1 691d b0bf a462 78c0 0668 aa3f
00000410: 209e a214 2a88 a83f 6b45 cff7 bd36 b03f
00000420: 3e76 f706 2fba 35bf a808 0c5c 2fc5 bbbf
00000430: 0bdf d996 4068 c43f 1bf7 ce62 f5bf b0bf
00000440: 25a7 a1d4 541f c9bf b37a a9ca 1e44 aebf
00000450: 4597 4a58 5e0d a43f b2d3 0a22 db88 af3f
00000460: 1b85 1a28 4181 8abf 7195 5a10 5f12 993f
00000470: 0174 1f2d 8d5c 85bf 5022 b692 92aa c2bf
00000480: 1319 e5ee 7f41 bf3f 21c6 5f07 5e94 bf3f
00000490: 90e6 2ded 82e6 c03f bdfe 91f6 3c2f b5bf
000004a0: 2048 43ca 608a a13f 9b4a fcb3 ff21 9cbf
000004b0: c4c7 a082 df98 913f d23e 78fd 2253 bcbf
000004c0: 78e2 5b76 2b41 5c3f 52ca b317 49c3 a0bf
000004d0: d4b0 1fb7 7306 b1bf ee63 4ccd 2d5e 81bf
000004e0: dc75 1fe1 509c 7c3f 5b04 9b27 30c9 ac3f
000004f0: a96b 5cf4 c33b 92bf 16ec f24b 373d cabf
00000500: e942 b271 fe1c b5bf e02f 000f 1038 bcbf
00000510: df25 74d0 bc79 833f 265e cffc 73c2 b1bf
00000520: 4230 a7ea 0e6b b13f ba77 48f5 86a2 bebf
00000530: 7b6a 920e 27df b3bf 9ad5 6a9a 35cb a6bf
00000540: 7a0b 8fe4 dc18 ba3f d808 6f84 a213 c3bf
00000550: 5ad6 82b1 cc83 a1bf 5c25 494e c775 b23f
00000560: c2fc 95e0 278c bd3f 49a7 fc6a e4aa c3bf
00000570: 71bc d0df 0855 993f d164 2778 8e83 b83f
00000580: da43 e7e8 17c1 853f b6ac 8396 1981 bb3f
00000590: fa4f b523 6138 a4bf 452c 3c0e 9775 b43f
000005a0: 3480 fd9d 1066 babf 65fc 7264 56d6 acbf
000005b0: 595e 154d 3e09 b4bf 4cca 26ab ea14 2bbf
000005c0: cbe2 d7ee 64f0 b03f 45e9 624d cbec a53f
000005d0: 4b17 c537 5c6d c2bf 0e0c 6b4d 30ee 62bf
000005e0: a714 31ed 6e48 b1bf 0562 bed7 65fc a8bf
000005f0: 2c08 af10 5f01 9bbf bb0b b301 9482 76bf
00000600: ed1d fe5b 1c27 b93f d2ff cd39 ca09 b1bf
00000610: 743c f64c c052 863f 45a7 8eaa 0fe2 c3bf
00000620: d73c ca44 acb0 b2bf 7acb 681e a8f4 81bf
00000630: 4623 0683 9432 a1bf f791 0f7f 7b11 5bbf
00000640: 831f 4e83 bf6c c0bf 6243 1bf4 01bb b7bf
00000650: 877b b3b9 55c1 c5bf e6d1 11a3 dd22 a2bf
00000660: 7507 4236 2a3a c0bf 5a2d 6c40 f319 83bf
00000670: f738 cebd 9979 bdbf 688b 1904 c0af c43f
00000680: 8cc3 074b bd3f d23f 8bb7 b06d 46ab c63f
00000690: 726e 7a60 001b 9f3f 71a8 a6ce 1131 bdbf
000006a0: 7c70 e1b2 e9b1 b3bf 563c dd34 3698 b83f
000006b0: b84b 6d7d d959 a63f b388 218a 8be4 c53f
000006c0: 09b7 4ad0 2ebf b43f 9098 8c47 1439 adbf
000006d0: f781 2ada 3c0d b03f fbf2 b231 24ef b3bf
000006e0: d462 7b57 147a a73f e4c6 02d7 ff76 abbf
000006f0: 07c0 1b62 9754 c5bf ed47 ee35 a9b2 693f
00000700: 0a97 2a82 e7fa b0bf b39f 0f9a c787 c3bf
00000710: 84f3 6db5 a1ea 773f 1776 2cf6 1f1c abbf
00000720: 13c3 7812 b49d bdbf fdfe 017f 982d c43f
00000730: 5df4 1420 db58 8a3f 1a3c 3ed8 1ffc bfbf
00000740: 13d8 d38e 66c1 983f b2fb 2d91 5a5a 6fbf
00000750: d1f9 88ad 693c aabf 2f92 eee5 130c c3bf
00000760: bc21 0510 d6b5 8abf ebf7 efc5 3270 b0bf
00000770: 0a2e afd0 1261 adbf ec86 d592 8532 b3bf
00000780: ab51 c829 bb59 d2bf 6b96 9e08 8759 c5bf
00000790: 2ea8 0a1c 09aa a9bf 2746 f585 bf0b 90bf
000007a0: 945c bbdf 7147 31bf 7625 8e63 571d b4bf
000007b0: 0df4 be55 7f88 b63f 4b16 af79 cd13 c93f
000007c0: 57e1 1b68 4a31 96bf 3458 36ef db1c 71bf
000007d0: bbef f636 192b b3bf adbb 1572 4d2e c2bf
000007e0: c403 18df a11e a63f 6799 0731 2a6e bbbf
000007f0: 9b46 1129 8d4a c2bf 10d7 b8ef 0c6f abbf
-0.0006109956327231818 0.03982608698994209 0.03200141368569695 -0.03895710184798589 -0.08452044936535247 -0.018329650223561995 -0.051576297415414515 -0.10230368299427044
-0.010265157619995567 -0.032519519771551174 -0.03692585454509105 -0.14584216903725256 0.08200129097956958 -0.05313160732096338 0.060413643713727885 -0.14768067099949816
-0.044257884005885026 -0.023055999209000994 -0.17267263717613857 -0.00905015071434638 -0.044627714088233614 -0.06741747507045003 -0.0277885026176636 -0.1433456055755855
0.012795924762906188 0.04202840212473648 -0.03217121687279801 -0.078164690725474 0.05650792220186957 -0.08838690150566647 -0.10571402241308775 0.04753355251166215
0.06523453796430166 -0.0886074047762789 -0.10539358723988804 -0.051639873803603506 -0.05889608245045152 0.03323735092473171 -0.19214151635584387 0.08963008371282066
-0.09619564618790828 0.058323875627698696 -0.0716360918366614 0.0037965856234703755 -0.05410288845236067 0.057651949568544046 -0.12089959879602301 0.06071960811606001
0.10419440814582734 0.08294300791936438 0.02213969286522336 -0.151668868771618 -0.18604072390933307 0.008479904656579707 0.09097711270417455 0.1376147771820839
0.10085432412286673 -0.10528845858713781 0.02841135683960814 -0.11157874588433271 0.028816194024172872 0.026534394067657063 -0.005729883741686945 0.08980613175919484
0.06356485538127976 0.021533039143130737 -0.08468567214855462 -0.10823326276164379 -0.039256890856244536 -0.008733984045482038 0.010770136613454082 0.0026058091187674756
-0.1641325272513301 0.004915241431738156 0.04516158502036035 0.14905770527093645 0.02019724833095532 -0.001073945603525017 0.11927037636028877 0.06479618057412533
0.07574047127129584 0.16537680591333706 0.03368642709282396 -0.004849532126484094 -0.0811559415644838 -0.025739216013841604 -0.07111036700251552 0.12938199318218557
0.12752624365417162 0.04069647771105723 0.05114813511582192 0.08202877580997842 0.11318638081267356 0.13742293257122984 0.10869617203824185 0.029937796344392642
0.14879509566569815 0.1855980287316325 0.15460053354956185 -0.022494083958427627 -0.009825846867656444 0.08425428496086108 0.0010270111511997697 -0.04652217169235287
-0.18172506226636342 -0.008215413942831823 0.06553577524275608 0.03664473088769105 0.09249025028741967 0.044506449361315016 0.1389523133939084 0.08289959070243316
0.0896646894694527 -0.057225752634556544 0.05097383112293105 -0.04309274405353593 0.034182247334337 0.10375619225202501 0.0083123799583004 0.03411338404824609
-0.18982794146856422 -0.05265274684978541 0.052676903037713704 -0.036553722481456837 0.05723022798055054 -0.015616472295041149 -0.07228285469797736 -0.08864763787203411
-0.0629488084798039 0.05157490825167102 0.04791385175604668 0.06333529758491856 -0.0003315319836171038 -0.10847755429498085 0.15943152776502986 -0.06542905485454435
-0.1962686575164351 -0.0591134664907619 0.03916449382567903 0.06159100332789737 -0.0129418459285398 0.0244841436130136 -0.010430434169331095 -0.14583046115537224
0.12209319670100553 0.12335765533477928 0.13203465062160946 -0.0827520467737441 0.03425886601475292 -0.02747344528240579 0.017184727046874362 -0.11064356506562525
0.0017245220600995686 -0.03273991026243962 -0.06650469990535451 -0.008480413272581058 0.006985011992552494 0.05622244342294699 -0.017806112088787938 -0.20499316414301977
-0.08247366214551345 -0.11023044935444615 0.00950953971052376 -0.06937336847419626 0.06803982952914203 -0.11966746795994157 -0.07762378793487727 -0.04451911458947251
0.10194187717483585 -0.1490367075585428 -0.034208676022370724 0.07210965787193885 0.1154198573403731 -0.153652717818938 0.024738444004637154 0.09575739320225131
0.010622202677867 0.10743865894953583 -0.03949264107600921 0.07991928193602955 -0.10311988694366009 -0.056322765123234565 -0.07826604253693271 -0.0002066170178075137
0.06616812544951782 0.04282222098977909 -0.1439624092401409 -0.0023108428389107044 -0.06751149454892645 -0.048800642572306464 -0.026372418778699266 -0.005495622778826477
0.09825303312219776 -0.06655563269850909 0.010900022839250158 -0.15533634021749712 -0.07300831489031921 -0.00876742689897524 -0.03358902072347418 -0.0016521173495159783
-0.12831872855553791 -0.09269725999480508 -0.1699626118415518 -0.0354222547111112 -0.12677505158722693 -0.009326839831848833 -0.11513672717976307 0.16161346626457918
0.28514034583263803 0.17710190158817016 0.030376439941945006 -0.11402999205771082 -0.07693348519518567 0.09607256689672403 0.04365424781885657 0.17103714222600316
0.08104221902132393 -0.05707610486415249 0.06270199133223985 -0.07786775792460425 0.04585326736350273 -0.05364226817745335 -0.16664402285050547 0.003136950006088482
-0.06632849624528717 -0.15258116743575342 0.005838996576923775 -0.05294895057725684 -0.11568761301965606 0.157641469970251 0.012864791790543057 -0.12494086293575926
0.024175264804363005 -0.003827263726122487 -0.05124216311786579 -0.14880608298439443 -0.013042137493031507 -0.06421201069312558 -0.05738123700538374 -0.07498965105835581
-0.2867267520935239 -0.16679466172097376 -0.05012539355568922 -0.01566981558909766 -0.00026365785718724635 -0.07857271366642302 0.08802028506666222 0.19591682855223022
-0.021672403911879936 -0.004177912825431607 -0.07487638084324903 -0.14203804083396446 0.04320245598137931 -0.10714973160756856 -0.14290012841461394 -0.05358162332815486

blocks1.SCINet_Tree.workingblock.interact.level.psi.4.bias f8 [6]
00000000: 87bc 28a2 66a4 acbf 9142 683d 5528 bc3f
00000010: 7110 7898 c735 bebf 0157 3b47 540e b1bf
00000020: f082 5d0f 05af a3bf 9b93 166f d158 bd3f
-0.05594177941781547 0.10999043225479911 -0.11800811264407841 -0.06662489642198112 -0.03844466984333461 0.11463650667299279
